google-all.tflite (tflite, 258668 bytes, 10 tensors)

sequential/conv2d/BiasAdd;sequential/conv2d/Conv2D;sequential/conv2d/BiasAdd/ReadVariableOp f2 [16]
0.06445 0.06088 0.0414 0.05795 0.1902 0.0882 0.12244 0.0767
0.01007 0.0691 0.03177 0.1469 0.09216 0.07495 0.143 -0.2279
00000000: 202c cb2b 4d29 6b2b 1632 a52d d62f e92c
00000010: 2821 6c2c 1128 b330 e62d cc2c 9330 4bb3

sequential/conv2d/BiasAdd;sequential/conv2d/Conv2D;sequential/conv2d/BiasAdd/ReadVariableOp1 f2 [16, 3, 3, 1]
-122.94 17.06 40.0 -103.75 -14.68 33.8 -85.9 25.28
-13.07 48.1 11.56 -108.4 42.94 -68.3 -72.6 86.9
3.5 -23.83 -2.865 12.73 -70.9 41.66 32.78 38.72
-53.4 -11.0 61.38 -73.25 57.7 -48.03 42.72 -50.03
-78.94 -110.5 -60.28 -19.66 -189.5 -42.6 -25.7 19.84
19.98 -11.59 -40.22 39.88 25.25 -96.5 26.36 -12.72
-88.9 66.3 -74.0 8.305 -35.8 -82.4 36.94 -46.97
-211.5 20.0 20.81 -42.44 46.53 55.2 -60.56 21.61
-28.31 -86.06 46.53 43.7 27.88 -90.2 -129.4 8.95
-0.524 -9.81 51.4 22.55 22.73 -21.81 57.56 29.44
-49.72 11.2 -148.4 -21.7 42.62 -7.383 28.52 55.8
45.12 47.16 -162.9 -52.97 26.48 -35.66 83.44 58.8
13.26 48.06 28.02 6.668 -183.2 69.06 7.336 -87.9
42.6 -8.24 -139.2 -34.53 13.93 53.22 -103.9 3.734
-26.66 62.56 -57.0 -82.2 -86.5 33.2 40.4 -56.97
-66.4 13.305 38.53 -50.88 17.31 60.16 -87.94 -165.9
-96.0 41.1 16.12 19.4 35.44 -3.11 52.7 50.1
35.34 -41.4 6.31 11.02 25.81 36.3 14.31 28.44
00000000: afd7 444c 0051 7cd6 57cb 3a50 5ed5 524e
00000010: 89ca 0352 c849 c6d6 5e51 45d4 8ad4 6e55
00000020: 0043 f5cd bbc1 5d4a 6ed4 3551 1950 d750
00000030: add2 80c9 ac53 94d4 3653 01d2 5751 41d2
00000040: efd4 e8d6 89d3 eacc ecd9 53d1 6dce f64c
00000050: ff4c ccc9 07d1 fc50 504e 08d6 974e 5cca
00000060: 8ed5 2554 a0d4 2748 7ad0 26d5 9e50 dfd1
00000070: 9cda 004d 344d 4ed1 d151 e652 92d3 674d
00000080: 14cf 61d5 d151 7651 f84e a3d5 0bd8 7a48
00000090: 31b8 e8c8 6d52 a34d af4d 74cd 3253 5c4f
000000a0: 37d2 9a49 a3d8 6dcd 5451 62c7 214f fa52
000000b0: a451 e551 17d9 9fd2 9f4e 75d0 3755 5a53
000000c0: a14a 0252 014f ab46 bad9 5154 5647 7ed5
000000d0: 5351 1fc8 5ad8 51d0 f74a a752 7ed6 7843
000000e0: aace d253 20d3 23d5 68d5 2650 0d51 1fd3
000000f0: 26d4 a74a d150 5cd2 544c 8553 7fd5 2fd9
00000100: 00d6 2351 084c da4c 6e50 38c2 9652 4352
00000110: 6b50 2dd1 4f46 8349 744e 8a50 284b 1c4f

sequential/conv2d_1/BiasAdd/ReadVariableOp f2 [32]
0.02803 0.1882 0.256 -0.0388 0.11444 0.1608 0.1302 -0.0675
0.09 0.06964 -0.002863 0.09015 0.0876 -0.1929 -0.1469 -0.05185
0.0912 0.2108 -0.02357 0.2001 0.1918 -0.00218 0.136 0.05447
0.2642 -0.01974 0.217 0.0513 -0.1294 0.1125 0.1794 0.07294
00000000: 2d27 0632 1934 f7a8 532f 2531 2b30 52ac
00000010: c32d 752c dd99 c52d 9b2d 2cb2 b3b0 a3aa
00000020: d62d bf32 09a6 6732 2332 7798 5a30 f92a
00000030: 3a34 0ea5 f232 912a 24b0 332f be31 ab2c

sequential/conv2d_2/BiasAdd/ReadVariableOp f2 [64]
0.01512 0.0249 0.0611 0.01021 0.0292 0.0524 0.009895 0.0975
0.1045 0.0549 0.05188 -0.007607 0.03265 0.0663 0.0461 0.00445
0.0305 -0.02179 0.05267 0.0553 0.003586 0.0778 0.0211 0.05936
-0.01323 -0.003174 -0.013626 0.01868 0.02306 0.02827 -0.01775 -0.02797
0.09827 0.06226 -0.1066 -0.011284 0.010765 0.01269 -0.06055 0.01855
0.02477 0.074 0.01666 0.01081 0.05988 0.03903 0.05344 -0.09924
-0.01605 0.0216 -0.0733 -0.0449 -0.06088 0.01868 -0.003084 0.0071
0.02118 -0.03815 0.07056 0.07184 0.01878 0.002367 0.042 -0.03363
00000000: be23 6026 d22b 3a21 7a27 b52a 1121 3d2e
00000010: b02e 072b a42a ca9f 2e28 3e2c e729 8f1c
00000020: cf27 94a5 be2a 142b 581b fb2c 6725 992b
00000030: c6a2 809a faa2 c824 e725 3d27 8ba4 29a7
00000040: 4a2e f82b d3ae c7a1 8321 7f22 c0ab c024
00000050: 5726 bc2c 4424 8921 aa2b ff28 d72a 5aae
00000060: 1ca4 8825 b1ac bfa9 cbab c824 519a 451f
00000070: 6c25 e2a8 842c 992c cf24 d918 6029 4ea8

sequential/conv2d_1/Conv2D f2 [32, 3, 3, 16]
-0.1836 0.05942 -0.083 -0.2411 -0.2625 -0.087 0.2605 -0.01531
-0.1615 0.1442 -0.4316 -0.007034 -0.1849 -0.04428 0.1847 -0.1252
-0.0143 -0.124 0.004677 0.2013 0.255 0.2212 0.0304 -0.002998
-0.1283 0.1843 -0.10876 0.2145 -0.2039 -0.1355 0.4465 -0.261
-0.2396 0.04315 -0.001816 0.358 0.315 0.01598 0.03207 0.2267
-0.2181 0.136 -0.01512 0.02142 -0.1338 -0.166 0.382 -0.0474
-0.11896 0.02238 -0.1946 -0.03876 -0.128 -0.3025 0.09314 -0.2041
0.08307 0.1648 -0.014114 -0.2773 0.02055 0.0651 -0.04922 -0.1934
-0.2292 0.06757 -0.1456 -0.06537 0.00929 -0.1963 0.06354 0.01764
0.1063 0.09424 -0.1704 -0.10834 -0.0995 -0.1544 0.1823 -0.0004258
-0.1605 0.10895 -0.03772 -0.04056 0.000984 -0.2273 -0.0933 -0.0912
-0.1095 0.1434 -0.1337 -0.04196 -0.2435 0.066 0.126 0.00474
-0.279 0.01935 -0.02832 -0.2927 -0.0841 -0.3103 0.012985 -0.08795
0.0787 0.0864 0.161 -0.2133 -0.01388 0.0755 -0.0422 0.00222
-0.2441 0.05344 0.2097 -0.1771 -0.066 -0.217 -0.00807 -0.01862
-0.02205 -0.03268 -0.1355 -0.1903 0.04645 -0.02956 0.072 -0.03802
-0.1599 0.1754 0.1758 -0.1652 -0.1371 -0.384 0.03427 0.1523
-0.003786 0.2656 0.0785 -0.1007 -0.01523 0.1057 0.169 -0.11194
0.0883 -0.43 -0.04333 0.0948 0.05762 0.1378 -0.06744 0.0721
-0.03955 -0.2783 -0.346 -0.01909 0.2335 0.0955 -0.3438 -0.07324
-0.225 -0.1953 0.02238 -0.0893 -0.07623 0.0251 -0.04926 0.03001
-0.1161 -0.1733 -0.0792 -0.291 -0.1775 0.1681 -0.049 0.01557
-0.305 -0.009575 0.05106 -0.1348 -0.1209 -0.0696 0.2188 -0.09204
-0.0775 0.1772 -0.1083 -0.11304 -0.1625 0.03156 -0.03308 -0.2102
0.1288 -0.596 -0.11444 0.1327 0.448 0.2344 -0.179 -0.05753
-0.1372 0.122 0.04776 0.2427 -0.0729 -0.11865 0.2563 -0.3494
0.1978 0.0856 0.0138 -0.1041 0.01657 0.079 -0.0571 -0.263
-0.1599 -0.06775 0.06464 -0.187 -0.01182 0.0994 -0.0497 -0.212
-0.09924 -0.1521 -0.1384 -0.1456 -0.1714 -0.05634 -0.057 -0.2109
0.05435 0.02466 0.01704 -0.0973 -0.04868 -0.11426 -0.03683 -0.0914
0.2793 -0.6772 0.12036 0.1844 0.3083 0.2241 -0.3027 0.2325
-0.3674 -0.02045 0.1516 0.002546 0.1014 0.11035 0.3328 -0.2527
00000000: e0b1 9b2b 50ad b7b3 33b4 91ad 2b34 d7a3
00000010: 2bb1 9d30 e8b6 349f ebb1 aba9 e931 02b0
00000020: 52a3 f0af ca1c 7132 1434 1433 c827 249a
00000030: 1bb0 e631 f6ae dd32 86b2 56b0 2537 2db4
00000040: abb3 8629 7097 ba35 0a35 1724 1b28 4133
00000050: fbb2 5a30 bea3 7c25 48b0 50b1 1d36 11aa
00000060: 9daf bb25 3ab2 f6a8 19b0 d7b4 f62d 88b2
00000070: 512d 4631 3aa3 70b4 4325 2b2c 4daa 30b2
00000080: 56b3 532c a9b0 2fac c220 48b2 112c 8424
00000090: ce2e 082e 74b1 efae 5eae f1b0 d531 fa8e
000000a0: 23b1 f92e d4a8 31a9 0814 46b3 f9ad d6ad
000000b0: 02af 9730 47b0 5fa9 cbb3 392c 0830 db1c
000000c0: 77b4 f424 40a7 afb4 62ad f7b4 a622 a1ad
000000d0: 092d 882d 2731 d3b2 1ba3 d52c 67a9 8c18
000000e0: d0b3 d72a b632 abb1 39ac f2b2 22a0 c4a4
000000f0: a5a5 2fa8 56b0 17b2 f229 91a7 9c2c dea8
00000100: 1eb1 9d31 a031 49b1 63b0 25b6 6328 e030
00000110: c19b 4034 062d 72ae cca3 c42e 6831 2aaf
00000120: a72d e1b6 8ca9 112e 602b 6930 51ac 9d2c
00000130: 10a9 74b4 89b5 e3a4 7933 1d2e 80b5 b0ac
00000140: 33b3 40b2 bb25 b7ad e1ac 6d26 4eaa af27
00000150: 6eaf 8cb1 12ad a8b4 aeb1 6131 46aa f923
00000160: e1b4 e7a0 892a 50b0 bdaf 74ac 0033 e4ad
00000170: f6ac ac31 eeae 3caf 33b1 0a28 3ca8 bab2
00000180: 1f30 c5b8 53af 3f30 2b37 8033 bab1 5dab
00000190: 64b0 cf2f 1d2a c433 aaac 98af 1a34 97b5
000001a0: 5432 7a2d 1123 aaae 3e24 0e2d 4fab 35b4
000001b0: 1eb1 56ac 232c fcb1 0da2 5d2e 5daa c9b2
000001c0: 5aae deb0 6eb0 a9b0 7cb1 36ab 4cab c0b2
000001d0: f52a 5026 5d24 3aae 3baa 50af b7a8 d9ad
000001e0: 7834 6bb9 b42f e731 ef34 2c33 d8b4 7133
000001f0: e1b5 3ca5 da30 3719 7d2e 102f 5335 0bb4

sequential/conv2d_2/Conv2D f2 [64, 3, 3, 32]
-0.4246 0.2339 0.1788 -0.04218 0.11084 0.3909 -0.01019 -0.2185
-0.2002 -0.1582 0.03723 0.04562 0.1937 -0.11176 -0.1907 0.01473
-0.356 -0.0944 -0.1539 -0.416 -0.3064 -0.1672 0.075 -0.334
-0.09467 0.1907 0.07434 0.1112 -0.06934 0.1714 0.1311 0.015076
-0.06128 0.1202 0.01349 -0.4094 0.0658 -0.0731 -0.0834 -0.3242
-0.0648 -0.07983 -0.1473 -0.04956 -0.04218 -0.04697 -0.3037 0.0577
-0.09955 0.0983 -0.04666 0.02135 0.005642 0.0572 -0.1542 0.1261
-0.1354 -0.044 0.06464 -0.04767 0.0003927 -0.273 0.04282 -0.0751
-0.1036 0.07654 -0.0818 -0.2888 0.02664 -0.2773 -0.3289 -0.0704
-0.1265 -0.098 -0.2339 -0.3523 -0.06235 -0.0757 -0.2329 0.07214
0.08655 -0.06866 0.03522 0.02316 0.0739 0.10693 -0.000706 0.0895
-0.02144 -0.2632 -0.06088 -0.004974 0.02283 -0.3145 0.1282 -0.1881
-0.2695 0.1434 -0.06256 0.005848 -0.1214 -0.07513 0.1952 0.02576
0.01726 0.1005 0.1317 0.08795 -0.07135 -0.0705 0.03818 -0.1196
-0.04193 0.1782 -0.1733 -0.1757 -0.11365 -0.3784 -0.1489 -0.2428
-0.2289 -0.1764 -0.1045 -0.1619 -0.05774 -0.0661 0.08386 0.0771
-0.00258 0.101 -0.0937 0.06866 -0.2284 -0.0953 0.012024 -0.0989
-0.05353 -0.003714 0.0229 -0.03134 0.0835 -0.296 0.005627 -0.1192
-0.08777 0.02933 -0.0915 -0.07434 -0.05374 -0.05222 -0.2737 0.1516
-0.1646 -0.1197 0.06775 0.01076 -0.129 -0.1567 0.01182 -0.2167
-0.234 -0.2776 -0.1261 0.02182 -0.08215 0.1642 -0.271 0.1495
-0.10736 -0.1611 0.08356 -0.1929 0.0547 -0.1155 -0.2407 0.06207
0.05872 -0.2186 0.02283 -0.03079 0.04486 0.03036 0.0703 -0.0827
0.01768 -0.1394 -0.1835 0.02687 -0.0676 0.0313 -0.06018 0.02109
-0.2413 0.1741 0.0501 0.1595 -0.09607 0.01752 0.1906 -0.06036
0.1685 -0.12494 0.293 0.1481 -0.234 -0.1713 0.0805 -0.115
-0.1389 0.0959 -0.1406 -0.0698 -0.2837 0.06067 -0.2483 -0.1814
0.02356 0.0803 -0.08856 -0.3755 -0.1975 -0.2588 -0.01316 0.05515
0.06305 0.0004437 0.0727 -0.1094 0.01587 -0.04095 -0.1586 -0.08215
0.06354 -0.01659 0.05237 0.00899 0.0835 -0.2239 -0.06146 -0.03076
0.04816 0.05707 -0.2417 -0.0925 0.02986 0.1052 -0.08716 0.2167
-0.1552 0.1204 0.05573 0.012085 -0.2401 -0.2024 0.04327 -0.1554
00000000: cbb6 7c33 b931 66a9 182f 4136 38a1 feb2
00000010: 68b2 10b1 c428 d729 3332 27af 1ab2 8b23
00000020: b2b5 0bae edb0 a8b6 e7b4 5ab1 cd2c 58b5
00000030: 0fae 1a32 c22c 1e2f 70ac 7c31 3230 b823
00000040: d8ab b12f e822 8db6 362c aeac 56ad 30b5
00000050: 26ac 1cad b7b0 58aa 66a9 03aa dcb4 632b
00000060: 5fae 4b2e f9a9 7725 c71d 522b efb0 0930
00000070: 55b0 a2a9 232c 1aaa 6f0e 5eb4 7b29 ceac
00000080: a1ae e62c 3cad 9fb4 d226 70b4 43b5 81ac
00000090: 0cb0 46ae 7cb3 a3b5 fbab d8ac 74b3 9e2c
000000a0: 8a2d 65ac 8228 ee25 bb2c d82e c991 ba2d
000000b0: 7da5 36b4 cbab 189d d825 08b5 1a30 05b2
000000c0: 50b4 9730 01ac fd1d c5af cfac 3f32 9826
000000d0: 6b24 6f2e 3730 a12d 91ac 83ac e328 a8af
000000e0: 5ea9 b431 8cb1 9fb1 46af 0eb6 c4b0 c5b3
000000f0: 53b3 a5b1 b0ae 2eb1 64ab 3bac 5e2d ef2c
00000100: 4999 772e ffad 652c 4fb3 19ae 2822 54ae
00000110: daaa 9b9b dd25 03a8 582d bcb4 c31d a1af
00000120: 9ead 8227 dbad c2ac e1aa afaa 61b4 da30
00000130: 44b1 a9af 562c 8221 21b0 04b1 0d22 efb2
00000140: 7db3 71b4 09b0 9625 42ad 4131 56b4 c930
00000150: dfae 28b1 592d 2cb2 002b 64af b4b3 f22b
00000160: 842b ffb2 d825 e2a7 be29 c627 802c 4bad
00000170: 8724 76b0 dfb1 e126 54ac 0228 b4ab 6625
00000180: b9b3 9231 6a2a 1b31 26ae 7c24 1932 baab
00000190: 6431 ffaf b034 bd30 7db3 7bb1 272d 5caf
000001a0: 72b0 232e 80b0 78ac 8ab4 c42b f2b3 ceb1
000001b0: 0826 242d abad 02b6 52b2 24b4 bda2 0f2b
000001c0: 092c 450f a72c 00af 1024 3ea9 13b1 42ad
000001d0: 112c 3fa4 b42a 9a20 582d 2ab3 deab e0a7
000001e0: 2a2a 4e2b bcb3 ecad a527 bc2e 94ad ef32
000001f0: f7b0 b52f 222b 3022 afb3 7ab2 8a29 f9b0

sequential/dense/BiasAdd/ReadVariableOp f2 [64]
0.0505 -0.1313 0.1137 -0.0777 -0.1482 -0.13 0.01994 -0.0887
0.1946 0.10767 -0.1101 0.03653 -0.05136 -0.02296 0.019 -0.2092
0.069 -0.005817 0.1274 -0.03967 0.1262 -0.0981 0.1301 -0.06168
0.1564 0.15 -0.1094 0.1315 0.07965 0.02104 0.02208 0.0501
0.04968 -0.04553 -0.02332 -0.0322 -0.0206 -0.1246 -0.0993 -0.0622
-0.0682 -0.10864 0.04575 0.1394 0.08887 0.04858 0.0888 -0.1227
-0.02582 -0.03424 -0.1875 -0.03833 0.01657 -0.05063 -0.0663 0.03812
-0.12415 -0.1023 0.05563 0.04156 0.000583 0.0358 0.02144 -0.12366
00000000: 772a 34b0 472f f9ac beb0 29b0 1b25 adad
00000010: 3a32 e42e 0caf ad28 93aa e1a5 dd24 b2b2
00000020: 6a2c f59d 1430 14a9 0a30 47ae 2a30 e5ab
00000030: 0131 cd30 00af 3530 192d 6325 a725 6a2a
00000040: 5c2a d4a9 f8a5 1fa8 46a5 f9af 5bae f6ab
00000050: 5dac f4ae db29 7630 b02d 382a af2d daaf
00000060: 9ca6 62a8 00b2 e8a8 3e24 7baa 3eac e128
00000070: f2af 8cae 1f2b 5229 c710 9528 7d25 eaaf

sequential/dense_1/BiasAdd/ReadVariableOp f2 [8]
-0.0956 0.2559 0.3318 0.07556 0.027 -0.2115 -0.4282 -0.04495
00000000: 1eae 1834 4f35 d62c e926 c5b2 dab6 c1a9

sequential/dense/MatMul f2 [64, 1600]
0.2285 -0.03156 -0.01633 0.03165 -0.2155 0.0971 -0.03177 -0.0313
0.3008 -0.2734 -0.11066 -0.2352 0.1076 -0.1083 -0.0886 0.1252
-0.06335 -0.05176 0.2415 0.0645 0.0513 -0.01235 0.01068 0.064
-0.0719 0.0634 -0.2294 -0.051 0.03198 -0.0379 -0.00408 0.1919
-0.02995 0.04065 0.03513 -0.01793 -0.05933 -0.1847 -0.01605 -0.1578
-0.1888 0.003292 -0.03488 0.03168 -0.0785 -0.03433 -0.2284 0.08124
0.2311 -0.00729 -0.1522 -0.01249 0.11633 0.09576 -0.11456 0.06647
0.0881 -0.03732 0.002417 0.04065 0.036 0.01762 -0.0618 0.1167
0.0342 0.2698 -0.02277 -0.04025 -0.1769 0.1725 0.079 0.012146
0.2208 -0.217 -0.1932 -0.2389 0.08795 -0.374 0.0382 0.1744
-0.247 0.1028 0.08875 -0.003689 0.03934 0.1249 0.187 -0.02328
-0.1421 0.0772 -0.1733 -0.041 -0.1063 0.0697 -0.0794 -0.01639
-0.003496 0.11566 0.03592 0.1069 -0.02689 -0.1527 -0.2046 0.02603
-0.1603 -0.06506 -0.10406 0.01387 0.013725 -0.1804 -0.08417 0.0708
0.05347 0.066 -0.0201 0.0774 -0.1233 -0.0603 -0.1943 0.004612
0.1918 0.1095 -0.01978 0.03065 0.05493 0.0961 0.10504 0.07635
0.132 0.0648 -0.0614 -0.01154 -0.2328 0.1837 0.0389 0.02718
0.11127 -0.3228 -0.11646 -0.1453 0.0958 -0.0841 0.1365 0.1677
-0.10565 0.1268 0.1487 0.007244 0.04016 -0.02335 0.2009 0.096
-0.2079 -0.00742 -0.1725 0.003218 -0.2954 0.06586 -0.04187 -0.003384
-0.0305 -0.03897 -0.04626 0.02832 0.0006695 -0.1256 -0.09326 0.006542
-0.2786 0.04877 -0.014854 0.1527 -0.02597 -0.10004 -0.08624 0.05164
0.1558 0.1578 -0.0463 0.00804 -0.1427 -0.059 -0.0915 0.1625
0.1964 0.1048 -0.04257 0.03143 0.1295 0.2588 0.0615 0.108
0.02441 -0.012344 0.02359 0.0203 -0.0715 0.10583 -0.1582 0.001285
0.1873 -0.238 -0.05365 -0.1768 -0.1632 -0.0281 -0.1669 -0.2155
-0.07794 0.1444 0.1349 0.05597 0.06805 0.0795 -0.03293 0.1131
-0.1561 0.08057 -0.1925 0.0648 -0.234 -0.1222 -0.007217 0.1366
-0.0115 0.0426 -0.12164 -0.1329 0.06354 -0.08057 -0.0979 -0.1588
-0.182 -0.0861 -0.09766 0.1044 -0.0634 -0.0793 -0.02414 -0.005184
0.133 0.03458 -0.04504 0.03323 0.0521 -0.0534 -0.1215 -0.0983
-0.0008492 -0.0348 -0.1027 0.0714 0.083 0.1342 -0.03326 0.007256
00000000: 5033 0aa8 2ea4 0d28 e5b2 372e 11a8 02a8
00000010: d034 60b4 15af 87b3 e32e eeae acad 0230
00000020: 0eac a0aa ba33 212c 912a 53a2 7821 192c
00000030: 9aac 0f2c 57b3 87aa 1828 daa8 2e9c 2432
00000040: aba7 3429 7f28 97a4 98ab e9b1 1ca4 0db1
00000050: 0bb2 be1a 77a8 0e28 06ad 65a8 4fb3 332d
00000060: 6533 779f dfb0 65a2 722f 212e 55af 412c
00000070: a32d c7a8 f318 3429 9c28 8324 e9ab 782f
00000080: 6128 5134 d4a5 27a9 a9b1 8531 0e2d 3822
00000090: 1133 f2b2 2fb2 a5b3 a12d fcb5 e428 9531
000000a0: e7b3 942e ae2d 8e9b 0929 fe2f fc31 f6a5
000000b0: 8cb0 f12c 8cb1 3fa9 ceae 762c 15ad 32a4
000000c0: 299b 672f 9928 d72e e2a6 e3b0 8cb2 aa26
000000d0: 21b1 2aac a9ae 1a23 0723 c6b1 63ad 882c
000000e0: d82a 392c 25a5 f42c e4af b8ab 38b2 b91c
000000f0: 2332 022f 10a5 d927 082b 272e b92e e32c
00000100: 3930 262c dcab e9a1 73b3 e131 fb28 f526
00000110: 1f2f 2ab5 74af a6b0 222e 62ad 5e30 5e31
00000120: c3ae 0f30 c230 6b1f 2429 faa5 6e32 252e
00000130: a7b2 999f 85b1 971a bab4 372c 5ca9 ee9a
00000140: cfa7 fda8 eca9 4027 7c11 05b0 f8ad b31e
00000150: 75b4 3e2a 9ba3 e330 a6a6 67ae 85ad 9c2a
00000160: fc30 0d31 eda9 1e20 91b0 8dab dbad 3331
00000170: 4932 b52e 73a9 0628 2530 2434 df2b e92e
00000180: 4026 52a2 0a26 3225 93ac c62e 10b1 4315
00000190: fe31 9eb3 deaa a8b1 39b1 32a7 57b1 e5b2
000001a0: fdac 9f30 5130 2a2b 5b2c 172d 37a8 3d2f
000001b0: ffb0 282d 29b2 262c 7db3 d2af 649f 5f30
000001c0: e3a1 7429 c9af 41b0 112c 28ad 44ae 15b1
000001d0: d3b1 83ad 40ae ae2e 0fac 13ad 2ea6 4f9d
000001e0: 4230 6d28 c4a9 4128 ab2a d6aa c7af 4bae
000001f0: f592 74a8 93ae 922c 502d 4b30 42a8 6e1f

sequential/dense_1/MatMul f2 [8, 64]
0.234 -0.07086 0.316 0.09766 0.429 0.3887 -0.3076 -0.512
0.09296 0.2878 -0.2202 -0.0527 -0.2098 -0.544 -0.2473 -0.258
0.2908 -0.191 0.252 -0.2957 0.2476 -0.5176 0.2123 -0.4993
0.312 0.2421 0.2825 -0.523 0.2307 -0.5244 0.3442 -0.4517
-0.5522 0.215 -0.5493 0.2805 -0.7686 -0.446 -0.291 -0.559
-0.4912 -0.7295 -0.7466 0.1753 0.2131 -0.04285 -0.3237 -0.277
0.2505 -0.2391 -0.2031 0.05444 0.4094 -0.3489 -0.2003 -0.2283
0.05188 0.342 0.233 0.304 -0.4946 -0.5723 -0.543 0.07697
-0.358 -0.3057 0.2827 -0.5483 -0.12256 -0.2954 -0.3818 -0.2656
-0.4504 0.2472 0.2874 -0.5376 0.303 0.00933 -0.1282 -0.2416
0.007755 -0.3877 0.176 0.2274 0.02574 0.04553 0.1525 -0.552
-0.4749 0.010994 -0.1488 -0.4077 0.2416 -0.3528 0.08 0.1432
0.224 -0.1571 0.1456 0.131 0.1858 0.03 0.1344 -0.1144
0.1835 0.2284 0.25 -0.4631 0.1913 -0.2986 -0.5034 0.2368
-0.342 0.3088 0.198 -0.3638 0.3022 0.1766 -0.3342 0.09064
0.276 -0.1846 -0.4062 -0.1569 -0.1205 -0.0695 -0.4429 0.1472
0.2769 0.2288 -0.56 -0.55 -0.3018 0.1247 -0.1721 0.07983
0.08997 -0.2786 -0.4756 0.2343 -0.488 0.1053 0.3218 -0.27
-0.4736 0.2676 -0.7554 -0.5957 0.3308 0.1606 -0.553 0.2527
0.2778 -0.8174 -0.3745 0.1644 -0.5493 -0.2458 -0.4797 -0.1716
0.2428 0.2417 0.1843 -0.4255 0.11487 -0.2113 -0.4924 0.2338
0.2094 0.2147 0.2075 -0.3906 -0.8237 -0.1659 0.3118 -0.09625
-0.5645 -0.5015 -0.2708 -0.651 -0.01513 -0.4492 0.2346 -0.814
0.3242 0.333 0.1685 0.269 0.1198 0.256 -0.133 -0.628
-0.06464 0.2603 -0.2698 -0.2778 0.3328 0.2778 0.091 0.1707
-0.7075 0.2747 0.3071 -0.359 0.3083 -0.5425 -0.05112 0.2678
-0.03008 -0.1775 -0.2783 0.2142 -0.1255 -0.303 0.1458 -0.0794
-0.2751 -0.4204 0.10876 -0.2876 -0.1686 -0.6343 -0.4172 -0.386
-0.2598 -0.7305 -0.4263 0.10724 -0.2856 0.056 -0.2852 0.1892
0.1664 0.1781 0.2505 0.1708 0.1862 -0.548 0.2556 0.247
0.1998 0.3105 -0.144 -0.306 -0.4387 0.1945 0.248 0.0828
-0.2424 0.1654 -0.376 -0.501 0.01511 0.2354 0.1274 0.1159
00000000: 7d33 89ac 0e35 402e dd36 3836 ecb4 19b8
00000010: f32d 9b34 0cb3 bfaa b7b2 5ab8 eab3 21b4
00000020: a734 1db2 0834 bbb4 ec33 24b8 cb32 fdb7
00000030: fe34 bf33 8534 2fb8 6233 32b8 8235 3ab7
00000040: 6bb8 e132 65b8 7d34 26ba 23b7 a8b4 79b8
00000050: dcb7 d6b9 f9b9 9c31 d232 7ca9 2eb5 6fb4
00000060: 0234 a7b3 80b2 f82a 8d36 95b5 69b2 4eb3
00000070: a42a 7935 7533 dd34 eab7 94b8 58b8 ed2c
00000080: bab5 e4b4 8634 63b8 d8af bab4 1cb6 40b4
00000090: 35b7 e933 9934 4db8 d934 c720 1ab0 bbb3
000000a0: f11f 34b6 a231 4733 9726 d429 e130 6ab8
000000b0: 99b7 a121 c3b0 86b6 bb33 a5b5 1f2d 9530
000000c0: 2b33 07b1 a930 3130 f231 ae27 4d30 52af
000000d0: df31 4f33 0034 69b7 1f32 c7b4 07b8 9433
000000e0: 79b5 f134 5632 d2b5 d634 a731 59b5 cd2d
000000f0: 6a34 e8b1 80b6 05b1 b6af 73ac 16b7 b630
00000100: 6e34 5233 7bb8 66b8 d4b4 fb2f 82b1 1c2d
00000110: c22d 75b4 9cb7 7f33 cfb7 bd2e 2635 52b4
00000120: 94b7 4834 0bba c4b8 4b35 2431 6db8 0b34
00000130: 7234 8aba feb5 4331 65b8 deb3 adb7 7eb1
00000140: c533 bc33 e631 cfb6 5a2f c3b2 e1b7 7b33
00000150: b332 df32 a432 40b6 97ba 4fb1 fd34 29ae
00000160: 84b8 03b8 55b4 35b9 bfa3 30b7 8233 83ba
00000170: 3035 5435 6431 4e34 ab2f 1934 42b0 06b9
00000180: 23ac 2a34 51b4 72b4 5335 7234 d32d 7631
00000190: a9b9 6534 ea34 beb5 ef34 57b8 8baa 4934
000001a0: b3a7 aeb1 74b4 db32 04b0 d9b4 aa30 15ad
000001b0: 67b4 bab6 f62e 9ab4 65b1 13b9 adb6 2db6
000001c0: 28b4 d8b9 d2b6 dd2e 92b4 2b2b 90b4 0e32
000001d0: 5331 b331 0234 7731 f531 62b8 1734 e733
000001e0: 6532 f834 9cb0 e5b4 05b7 3932 f033 4d2d
000001f0: c2b3 4b31 04b6 02b8 bc23 8833 1430 6b2f
